Net(
  (backbone): FeatureListNet(
    (stem_0): Conv2d(5, 96, kernel_size=(4, 4), stride=(4, 4))
    (stem_1): LayerNorm2d((96,), eps=1e-06, elementwise_affine=True)
    (stages_0): ConvNeXtStage(
      (downsample): Identity()
      (blocks): Sequential(
        (0): ConvNeXtBlock(
          (conv_dw): Conv2d(96, 96, kernel_size=(7, 7), stride=(1, 1), padding=(3, 3), groups=96)
          (norm): LayerNorm((96,), eps=1e-06, elementwise_affine=True)
          (mlp): Mlp(
            (fc1): Linear(in_features=96, out_features=384, bias=True)
            (act): GELU()
            (drop1): Dropout(p=0.0, inplace=False)
            (norm): Identity()
            (fc2): Linear(in_features=384, out_features=96, bias=True)
            (drop2): Dropout(p=0.0, inplace=False)
          )
          (shortcut): Identity()
          (drop_path): Identity()
        )
        (1): ConvNeXtBlock(
          (conv_dw): Conv2d(96, 96, kernel_size=(7, 7), stride=(1, 1), padding=(3, 3), groups=96)
          (norm): LayerNorm((96,), eps=1e-06, elementwise_affine=True)
          (mlp): Mlp(
            (fc1): Linear(in_features=96, out_features=384, bias=True)
            (act): GELU()
            (drop1): Dropout(p=0.0, inplace=False)
            (norm): Identity()
            (fc2): Linear(in_features=384, out_features=96, bias=True)
            (drop2): Dropout(p=0.0, inplace=False)
          )
          (shortcut): Identity()
          (drop_path): Identity()
        )
        (2): ConvNeXtBlock(
          (conv_dw): Conv2d(96, 96, kernel_size=(7, 7), stride=(1, 1), padding=(3, 3), groups=96)
          (norm): LayerNorm((96,), eps=1e-06, elementwise_affine=True)
          (mlp): Mlp(
            (fc1): Linear(in_features=96, out_features=384, bias=True)
            (act): GELU()
            (drop1): Dropout(p=0.0, inplace=False)
            (norm): Identity()
            (fc2): Linear(in_features=384, out_features=96, bias=True)
            (drop2): Dropout(p=0.0, inplace=False)
          )
          (shortcut): Identity()
          (drop_path): Identity()
        )
      )
    )
    (stages_1): ConvNeXtStage(
      (downsample): Sequential(
        (0): LayerNorm2d((96,), eps=1e-06, elementwise_affine=True)
        (1): Conv2d(96, 192, kernel_size=(2, 2), stride=(2, 2))
      )
      (blocks): Sequential(
        (0): ConvNeXtBlock(
          (conv_dw): Conv2d(192, 192, kernel_size=(7, 7), stride=(1, 1), padding=(3, 3), groups=192)
          (norm): LayerNorm((192,), eps=1e-06, elementwise_affine=True)
          (mlp): Mlp(
            (fc1): Linear(in_features=192, out_features=768, bias=True)
            (act): GELU()
            (drop1): Dropout(p=0.0, inplace=False)
            (norm): Identity()
            (fc2): Linear(in_features=768, out_features=192, bias=True)
            (drop2): Dropout(p=0.0, inplace=False)
          )
          (shortcut): Identity()
          (drop_path): Identity()
        )
        (1): ConvNeXtBlock(
          (conv_dw): Conv2d(192, 192, kernel_size=(7, 7), stride=(1, 1), padding=(3, 3), groups=192)
          (norm): LayerNorm((192,), eps=1e-06, elementwise_affine=True)
          (mlp): Mlp(
            (fc1): Linear(in_features=192, out_features=768, bias=True)
            (act): GELU()
            (drop1): Dropout(p=0.0, inplace=False)
            (norm): Identity()
            (fc2): Linear(in_features=768, out_features=192, bias=True)
            (drop2): Dropout(p=0.0, inplace=False)
          )
          (shortcut): Identity()
          (drop_path): Identity()
        )
        (2): ConvNeXtBlock(
          (conv_dw): Conv2d(192, 192, kernel_size=(7, 7), stride=(1, 1), padding=(3, 3), groups=192)
          (norm): LayerNorm((192,), eps=1e-06, elementwise_affine=True)
          (mlp): Mlp(
            (fc1): Linear(in_features=192, out_features=768, bias=True)
            (act): GELU()
            (drop1): Dropout(p=0.0, inplace=False)
            (norm): Identity()
            (fc2): Linear(in_features=768, out_features=192, bias=True)
            (drop2): Dropout(p=0.0, inplace=False)
          )
          (shortcut): Identity()
          (drop_path): Identity()
        )
      )
    )
    (stages_2): ConvNeXtStage(
      (downsample): Sequential(
        (0): LayerNorm2d((192,), eps=1e-06, elementwise_affine=True)
        (1): Conv2d(192, 384, kernel_size=(2, 2), stride=(2, 2))
      )
      (blocks): Sequential(
        (0): ConvNeXtBlock(
          (conv_dw): Conv2d(384, 384, kernel_size=(7, 7), stride=(1, 1), padding=(3, 3), groups=384)
          (norm): LayerNorm((384,), eps=1e-06, elementwise_affine=True)
          (mlp): Mlp(
            (fc1): Linear(in_features=384, out_features=1536, bias=True)
            (act): GELU()
            (drop1): Dropout(p=0.0, inplace=False)
            (norm): Identity()
            (fc2): Linear(in_features=1536, out_features=384, bias=True)
            (drop2): Dropout(p=0.0, inplace=False)
          )
          (shortcut): Identity()
          (drop_path): Identity()
        )
        (1): ConvNeXtBlock(
          (conv_dw): Conv2d(384, 384, kernel_size=(7, 7), stride=(1, 1), padding=(3, 3), groups=384)
          (norm): LayerNorm((384,), eps=1e-06, elementwise_affine=True)
          (mlp): Mlp(
            (fc1): Linear(in_features=384, out_features=1536, bias=True)
            (act): GELU()
            (drop1): Dropout(p=0.0, inplace=False)
            (norm): Identity()
            (fc2): Linear(in_features=1536, out_features=384, bias=True)
            (drop2): Dropout(p=0.0, inplace=False)
          )
          (shortcut): Identity()
          (drop_path): Identity()
        )
        (2): ConvNeXtBlock(
          (conv_dw): Conv2d(384, 384, kernel_size=(7, 7), stride=(1, 1), padding=(3, 3), groups=384)
          (norm): LayerNorm((384,), eps=1e-06, elementwise_affine=True)
          (mlp): Mlp(
            (fc1): Linear(in_features=384, out_features=1536, bias=True)
            (act): GELU()
            (drop1): Dropout(p=0.0, inplace=False)
            (norm): Identity()
            (fc2): Linear(in_features=1536, out_features=384, bias=True)
            (drop2): Dropout(p=0.0, inplace=False)
          )
          (shortcut): Identity()
          (drop_path): Identity()
        )
        (3): ConvNeXtBlock(
          (conv_dw): Conv2d(384, 384, kernel_size=(7, 7), stride=(1, 1), padding=(3, 3), groups=384)
          (norm): LayerNorm((384,), eps=1e-06, elementwise_affine=True)
          (mlp): Mlp(
            (fc1): Linear(in_features=384, out_features=1536, bias=True)
            (act): GELU()
            (drop1): Dropout(p=0.0, inplace=False)
            (norm): Identity()
            (fc2): Linear(in_features=1536, out_features=384, bias=True)
            (drop2): Dropout(p=0.0, inplace=False)
          )
          (shortcut): Identity()
          (drop_path): Identity()
        )
        (4): ConvNeXtBlock(
          (conv_dw): Conv2d(384, 384, kernel_size=(7, 7), stride=(1, 1), padding=(3, 3), groups=384)
          (norm): LayerNorm((384,), eps=1e-06, elementwise_affine=True)
          (mlp): Mlp(
            (fc1): Linear(in_features=384, out_features=1536, bias=True)
            (act): GELU()
            (drop1): Dropout(p=0.0, inplace=False)
            (norm): Identity()
            (fc2): Linear(in_features=1536, out_features=384, bias=True)
            (drop2): Dropout(p=0.0, inplace=False)
          )
          (shortcut): Identity()
          (drop_path): Identity()
        )
        (5): ConvNeXtBlock(
          (conv_dw): Conv2d(384, 384, kernel_size=(7, 7), stride=(1, 1), padding=(3, 3), groups=384)
          (norm): LayerNorm((384,), eps=1e-06, elementwise_affine=True)
          (mlp): Mlp(
            (fc1): Linear(in_features=384, out_features=1536, bias=True)
            (act): GELU()
            (drop1): Dropout(p=0.0, inplace=False)
            (norm): Identity()
            (fc2): Linear(in_features=1536, out_features=384, bias=True)
            (drop2): Dropout(p=0.0, inplace=False)
          )
          (shortcut): Identity()
          (drop_path): Identity()
        )
        (6): ConvNeXtBlock(
          (conv_dw): Conv2d(384, 384, kernel_size=(7, 7), stride=(1, 1), padding=(3, 3), groups=384)
          (norm): LayerNorm((384,), eps=1e-06, elementwise_affine=True)
          (mlp): Mlp(
            (fc1): Linear(in_features=384, out_features=1536, bias=True)
            (act): GELU()
            (drop1): Dropout(p=0.0, inplace=False)
            (norm): Identity()
            (fc2): Linear(in_features=1536, out_features=384, bias=True)
            (drop2): Dropout(p=0.0, inplace=False)
          )
          (shortcut): Identity()
          (drop_path): Identity()
        )
        (7): ConvNeXtBlock(
          (conv_dw): Conv2d(384, 384, kernel_size=(7, 7), stride=(1, 1), padding=(3, 3), groups=384)
          (norm): LayerNorm((384,), eps=1e-06, elementwise_affine=True)
          (mlp): Mlp(
            (fc1): Linear(in_features=384, out_features=1536, bias=True)
            (act): GELU()
            (drop1): Dropout(p=0.0, inplace=False)
            (norm): Identity()
            (fc2): Linear(in_features=1536, out_features=384, bias=True)
            (drop2): Dropout(p=0.0, inplace=False)
          )
          (shortcut): Identity()
          (drop_path): Identity()
        )
        (8): ConvNeXtBlock(
          (conv_dw): Conv2d(384, 384, kernel_size=(7, 7), stride=(1, 1), padding=(3, 3), groups=384)
          (norm): LayerNorm((384,), eps=1e-06, elementwise_affine=True)
          (mlp): Mlp(
            (fc1): Linear(in_features=384, out_features=1536, bias=True)
            (act): GELU()
            (drop1): Dropout(p=0.0, inplace=False)
            (norm): Identity()
            (fc2): Linear(in_features=1536, out_features=384, bias=True)
            (drop2): Dropout(p=0.0, inplace=False)
          )
          (shortcut): Identity()
          (drop_path): Identity()
        )
        (9): ConvNeXtBlock(
          (conv_dw): Conv2d(384, 384, kernel_size=(7, 7), stride=(1, 1), padding=(3, 3), groups=384)
          (norm): LayerNorm((384,), eps=1e-06, elementwise_affine=True)
          (mlp): Mlp(
            (fc1): Linear(in_features=384, out_features=1536, bias=True)
            (act): GELU()
            (drop1): Dropout(p=0.0, inplace=False)
            (norm): Identity()
            (fc2): Linear(in_features=1536, out_features=384, bias=True)
            (drop2): Dropout(p=0.0, inplace=False)
          )
          (shortcut): Identity()
          (drop_path): Identity()
        )
        (10): ConvNeXtBlock(
          (conv_dw): Conv2d(384, 384, kernel_size=(7, 7), stride=(1, 1), padding=(3, 3), groups=384)
          (norm): LayerNorm((384,), eps=1e-06, elementwise_affine=True)
          (mlp): Mlp(
            (fc1): Linear(in_features=384, out_features=1536, bias=True)
            (act): GELU()
            (drop1): Dropout(p=0.0, inplace=False)
            (norm): Identity()
            (fc2): Linear(in_features=1536, out_features=384, bias=True)
            (drop2): Dropout(p=0.0, inplace=False)
          )
          (shortcut): Identity()
          (drop_path): Identity()
        )
        (11): ConvNeXtBlock(
          (conv_dw): Conv2d(384, 384, kernel_size=(7, 7), stride=(1, 1), padding=(3, 3), groups=384)
          (norm): LayerNorm((384,), eps=1e-06, elementwise_affine=True)
          (mlp): Mlp(
            (fc1): Linear(in_features=384, out_features=1536, bias=True)
            (act): GELU()
            (drop1): Dropout(p=0.0, inplace=False)
            (norm): Identity()
            (fc2): Linear(in_features=1536, out_features=384, bias=True)
            (drop2): Dropout(p=0.0, inplace=False)
          )
          (shortcut): Identity()
          (drop_path): Identity()
        )
        (12): ConvNeXtBlock(
          (conv_dw): Conv2d(384, 384, kernel_size=(7, 7), stride=(1, 1), padding=(3, 3), groups=384)
          (norm): LayerNorm((384,), eps=1e-06, elementwise_affine=True)
          (mlp): Mlp(
            (fc1): Linear(in_features=384, out_features=1536, bias=True)
            (act): GELU()
            (drop1): Dropout(p=0.0, inplace=False)
            (norm): Identity()
            (fc2): Linear(in_features=1536, out_features=384, bias=True)
            (drop2): Dropout(p=0.0, inplace=False)
          )
          (shortcut): Identity()
          (drop_path): Identity()
        )
        (13): ConvNeXtBlock(
          (conv_dw): Conv2d(384, 384, kernel_size=(7, 7), stride=(1, 1), padding=(3, 3), groups=384)
          (norm): LayerNorm((384,), eps=1e-06, elementwise_affine=True)
          (mlp): Mlp(
            (fc1): Linear(in_features=384, out_features=1536, bias=True)
            (act): GELU()
            (drop1): Dropout(p=0.0, inplace=False)
            (norm): Identity()
            (fc2): Linear(in_features=1536, out_features=384, bias=True)
            (drop2): Dropout(p=0.0, inplace=False)
          )
          (shortcut): Identity()
          (drop_path): Identity()
        )
        (14): ConvNeXtBlock(
          (conv_dw): Conv2d(384, 384, kernel_size=(7, 7), stride=(1, 1), padding=(3, 3), groups=384)
          (norm): LayerNorm((384,), eps=1e-06, elementwise_affine=True)
          (mlp): Mlp(
            (fc1): Linear(in_features=384, out_features=1536, bias=True)
            (act): GELU()
            (drop1): Dropout(p=0.0, inplace=False)
            (norm): Identity()
            (fc2): Linear(in_features=1536, out_features=384, bias=True)
            (drop2): Dropout(p=0.0, inplace=False)
          )
          (shortcut): Identity()
          (drop_path): Identity()
        )
        (15): ConvNeXtBlock(
          (conv_dw): Conv2d(384, 384, kernel_size=(7, 7), stride=(1, 1), padding=(3, 3), groups=384)
          (norm): LayerNorm((384,), eps=1e-06, elementwise_affine=True)
          (mlp): Mlp(
            (fc1): Linear(in_features=384, out_features=1536, bias=True)
            (act): GELU()
            (drop1): Dropout(p=0.0, inplace=False)
            (norm): Identity()
            (fc2): Linear(in_features=1536, out_features=384, bias=True)
            (drop2): Dropout(p=0.0, inplace=False)
          )
          (shortcut): Identity()
          (drop_path): Identity()
        )
        (16): ConvNeXtBlock(
          (conv_dw): Conv2d(384, 384, kernel_size=(7, 7), stride=(1, 1), padding=(3, 3), groups=384)
          (norm): LayerNorm((384,), eps=1e-06, elementwise_affine=True)
          (mlp): Mlp(
            (fc1): Linear(in_features=384, out_features=1536, bias=True)
            (act): GELU()
            (drop1): Dropout(p=0.0, inplace=False)
            (norm): Identity()
            (fc2): Linear(in_features=1536, out_features=384, bias=True)
            (drop2): Dropout(p=0.0, inplace=False)
          )
          (shortcut): Identity()
          (drop_path): Identity()
        )
        (17): ConvNeXtBlock(
          (conv_dw): Conv2d(384, 384, kernel_size=(7, 7), stride=(1, 1), padding=(3, 3), groups=384)
          (norm): LayerNorm((384,), eps=1e-06, elementwise_affine=True)
          (mlp): Mlp(
            (fc1): Linear(in_features=384, out_features=1536, bias=True)
            (act): GELU()
            (drop1): Dropout(p=0.0, inplace=False)
            (norm): Identity()
            (fc2): Linear(in_features=1536, out_features=384, bias=True)
            (drop2): Dropout(p=0.0, inplace=False)
          )
          (shortcut): Identity()
          (drop_path): Identity()
        )
        (18): ConvNeXtBlock(
          (conv_dw): Conv2d(384, 384, kernel_size=(7, 7), stride=(1, 1), padding=(3, 3), groups=384)
          (norm): LayerNorm((384,), eps=1e-06, elementwise_affine=True)
          (mlp): Mlp(
            (fc1): Linear(in_features=384, out_features=1536, bias=True)
            (act): GELU()
            (drop1): Dropout(p=0.0, inplace=False)
            (norm): Identity()
            (fc2): Linear(in_features=1536, out_features=384, bias=True)
            (drop2): Dropout(p=0.0, inplace=False)
          )
          (shortcut): Identity()
          (drop_path): Identity()
        )
        (19): ConvNeXtBlock(
          (conv_dw): Conv2d(384, 384, kernel_size=(7, 7), stride=(1, 1), padding=(3, 3), groups=384)
          (norm): LayerNorm((384,), eps=1e-06, elementwise_affine=True)
          (mlp): Mlp(
            (fc1): Linear(in_features=384, out_features=1536, bias=True)
            (act): GELU()
            (drop1): Dropout(p=0.0, inplace=False)
            (norm): Identity()
            (fc2): Linear(in_features=1536, out_features=384, bias=True)
            (drop2): Dropout(p=0.0, inplace=False)
          )
          (shortcut): Identity()
          (drop_path): Identity()
        )
        (20): ConvNeXtBlock(
          (conv_dw): Conv2d(384, 384, kernel_size=(7, 7), stride=(1, 1), padding=(3, 3), groups=384)
          (norm): LayerNorm((384,), eps=1e-06, elementwise_affine=True)
          (mlp): Mlp(
            (fc1): Linear(in_features=384, out_features=1536, bias=True)
            (act): GELU()
            (drop1): Dropout(p=0.0, inplace=False)
            (norm): Identity()
            (fc2): Linear(in_features=1536, out_features=384, bias=True)
            (drop2): Dropout(p=0.0, inplace=False)
          )
          (shortcut): Identity()
          (drop_path): Identity()
        )
        (21): ConvNeXtBlock(
          (conv_dw): Conv2d(384, 384, kernel_size=(7, 7), stride=(1, 1), padding=(3, 3), groups=384)
          (norm): LayerNorm((384,), eps=1e-06, elementwise_affine=True)
          (mlp): Mlp(
            (fc1): Linear(in_features=384, out_features=1536, bias=True)
            (act): GELU()
            (drop1): Dropout(p=0.0, inplace=False)
            (norm): Identity()
            (fc2): Linear(in_features=1536, out_features=384, bias=True)
            (drop2): Dropout(p=0.0, inplace=False)
          )
          (shortcut): Identity()
          (drop_path): Identity()
        )
        (22): ConvNeXtBlock(
          (conv_dw): Conv2d(384, 384, kernel_size=(7, 7), stride=(1, 1), padding=(3, 3), groups=384)
          (norm): LayerNorm((384,), eps=1e-06, elementwise_affine=True)
          (mlp): Mlp(
            (fc1): Linear(in_features=384, out_features=1536, bias=True)
            (act): GELU()
            (drop1): Dropout(p=0.0, inplace=False)
            (norm): Identity()
            (fc2): Linear(in_features=1536, out_features=384, bias=True)
            (drop2): Dropout(p=0.0, inplace=False)
          )
          (shortcut): Identity()
          (drop_path): Identity()
        )
        (23): ConvNeXtBlock(
          (conv_dw): Conv2d(384, 384, kernel_size=(7, 7), stride=(1, 1), padding=(3, 3), groups=384)
          (norm): LayerNorm((384,), eps=1e-06, elementwise_affine=True)
          (mlp): Mlp(
            (fc1): Linear(in_features=384, out_features=1536, bias=True)
            (act): GELU()
            (drop1): Dropout(p=0.0, inplace=False)
            (norm): Identity()
            (fc2): Linear(in_features=1536, out_features=384, bias=True)
            (drop2): Dropout(p=0.0, inplace=False)
          )
          (shortcut): Identity()
          (drop_path): Identity()
        )
        (24): ConvNeXtBlock(
          (conv_dw): Conv2d(384, 384, kernel_size=(7, 7), stride=(1, 1), padding=(3, 3), groups=384)
          (norm): LayerNorm((384,), eps=1e-06, elementwise_affine=True)
          (mlp): Mlp(
            (fc1): Linear(in_features=384, out_features=1536, bias=True)
            (act): GELU()
            (drop1): Dropout(p=0.0, inplace=False)
            (norm): Identity()
            (fc2): Linear(in_features=1536, out_features=384, bias=True)
            (drop2): Dropout(p=0.0, inplace=False)
          )
          (shortcut): Identity()
          (drop_path): Identity()
        )
        (25): ConvNeXtBlock(
          (conv_dw): Conv2d(384, 384, kernel_size=(7, 7), stride=(1, 1), padding=(3, 3), groups=384)
          (norm): LayerNorm((384,), eps=1e-06, elementwise_affine=True)
          (mlp): Mlp(
            (fc1): Linear(in_features=384, out_features=1536, bias=True)
            (act): GELU()
            (drop1): Dropout(p=0.0, inplace=False)
            (norm): Identity()
            (fc2): Linear(in_features=1536, out_features=384, bias=True)
            (drop2): Dropout(p=0.0, inplace=False)
          )
          (shortcut): Identity()
          (drop_path): Identity()
        )
        (26): ConvNeXtBlock(
          (conv_dw): Conv2d(384, 384, kernel_size=(7, 7), stride=(1, 1), padding=(3, 3), groups=384)
          (norm): LayerNorm((384,), eps=1e-06, elementwise_affine=True)
          (mlp): Mlp(
            (fc1): Linear(in_features=384, out_features=1536, bias=True)
            (act): GELU()
            (drop1): Dropout(p=0.0, inplace=False)
            (norm): Identity()
            (fc2): Linear(in_features=1536, out_features=384, bias=True)
            (drop2): Dropout(p=0.0, inplace=False)
          )
          (shortcut): Identity()
          (drop_path): Identity()
        )
      )
    )
    (stages_3): ConvNeXtStage(
      (downsample): Sequential(
        (0): LayerNorm2d((384,), eps=1e-06, elementwise_affine=True)
        (1): Conv2d(384, 768, kernel_size=(2, 2), stride=(2, 2))
      )
      (blocks): Sequential(
        (0): ConvNeXtBlock(
          (conv_dw): Conv2d(768, 768, kernel_size=(7, 7), stride=(1, 1), padding=(3, 3), groups=768)
          (norm): LayerNorm((768,), eps=1e-06, elementwise_affine=True)
          (mlp): Mlp(
            (fc1): Linear(in_features=768, out_features=3072, bias=True)
            (act): GELU()
            (drop1): Dropout(p=0.0, inplace=False)
            (norm): Identity()
            (fc2): Linear(in_features=3072, out_features=768, bias=True)
            (drop2): Dropout(p=0.0, inplace=False)
          )
          (shortcut): Identity()
          (drop_path): Identity()
        )
        (1): ConvNeXtBlock(
          (conv_dw): Conv2d(768, 768, kernel_size=(7, 7), stride=(1, 1), padding=(3, 3), groups=768)
          (norm): LayerNorm((768,), eps=1e-06, elementwise_affine=True)
          (mlp): Mlp(
            (fc1): Linear(in_features=768, out_features=3072, bias=True)
            (act): GELU()
            (drop1): Dropout(p=0.0, inplace=False)
            (norm): Identity()
            (fc2): Linear(in_features=3072, out_features=768, bias=True)
            (drop2): Dropout(p=0.0, inplace=False)
          )
          (shortcut): Identity()
          (drop_path): Identity()
        )
        (2): ConvNeXtBlock(
          (conv_dw): Conv2d(768, 768, kernel_size=(7, 7), stride=(1, 1), padding=(3, 3), groups=768)
          (norm): LayerNorm((768,), eps=1e-06, elementwise_affine=True)
          (mlp): Mlp(
            (fc1): Linear(in_features=768, out_features=3072, bias=True)
            (act): GELU()
            (drop1): Dropout(p=0.0, inplace=False)
            (norm): Identity()
            (fc2): Linear(in_features=3072, out_features=768, bias=True)
            (drop2): Dropout(p=0.0, inplace=False)
          )
          (shortcut): Identity()
          (drop_path): Identity()
        )
      )
    )
  )
  (transformer_module): TemporalSpatialTransformer(
    (temporal_transformer): TransformerEncoder(
      (layers): ModuleList(
        (0): TransformerEncoderLayer(
          (self_attn): MultiheadAttention(
            (out_proj): NonDynamicallyQuantizableLinear(in_features=96, out_features=96, bias=True)
          )
          (linear1): Linear(in_features=96, out_features=384, bias=True)
          (dropout): Dropout(p=0.1, inplace=False)
          (linear2): Linear(in_features=384, out_features=96, bias=True)
          (norm1): LayerNorm((96,), eps=1e-05, elementwise_affine=True)
          (norm2): LayerNorm((96,), eps=1e-05, elementwise_affine=True)
          (dropout1): Dropout(p=0.1, inplace=False)
          (dropout2): Dropout(p=0.1, inplace=False)
        )
      )
    )
    (spatial_transformer): TransformerEncoder(
      (layers): ModuleList(
        (0): TransformerEncoderLayer(
          (self_attn): MultiheadAttention(
            (out_proj): NonDynamicallyQuantizableLinear(in_features=96, out_features=96, bias=True)
          )
          (linear1): Linear(in_features=96, out_features=384, bias=True)
          (dropout): Dropout(p=0.1, inplace=False)
          (linear2): Linear(in_features=384, out_features=96, bias=True)
          (norm1): LayerNorm((96,), eps=1e-05, elementwise_affine=True)
          (norm2): LayerNorm((96,), eps=1e-05, elementwise_affine=True)
          (dropout1): Dropout(p=0.1, inplace=False)
          (dropout2): Dropout(p=0.1, inplace=False)
        )
      )
    )
  )
  (decoder): UnetDecoder2d(
    (blocks): ModuleList(
      (0): DecoderBlock2d(
        (upsample): UpSample(
          (deconv): ConvTranspose2d(96, 96, kernel_size=(2, 2), stride=(2, 2))
        )
        (attention1): Attention2d(
          (attention): SCSEModule2d(
            (cSE): Sequential(
              (0): AdaptiveAvgPool2d(output_size=1)
              (1): Conv2d(288, 18, kernel_size=(1, 1), stride=(1, 1))
              (2): GELU(approximate='none')
              (3): Conv2d(18, 288, kernel_size=(1, 1), stride=(1, 1))
              (4): Sigmoid()
            )
            (sSE): Sequential(
              (0): Conv2d(288, 1, kernel_size=(1, 1), stride=(1, 1))
              (1): Sigmoid()
            )
          )
        )
        (conv1): ConvBnAct2d(
          (conv): Conv2d(288, 256, kernel_size=(3, 3), stride=(1, 1), padding=(1, 1), bias=False)
          (norm): InstanceNorm2d(256, eps=1e-05, momentum=0.1, affine=False, track_running_stats=False)
          (act): GELU(approximate='none')
        )
        (conv2): ConvBnAct2d(
          (conv): Conv2d(256, 256, kernel_size=(3, 3), stride=(1, 1), padding=(1, 1), bias=False)
          (norm): InstanceNorm2d(256, eps=1e-05, momentum=0.1, affine=False, track_running_stats=False)
          (act): GELU(approximate='none')
        )
        (attention2): Attention2d(
          (attention): SCSEModule2d(
            (cSE): Sequential(
              (0): AdaptiveAvgPool2d(output_size=1)
              (1): Conv2d(256, 16, kernel_size=(1, 1), stride=(1, 1))
              (2): GELU(approximate='none')
              (3): Conv2d(16, 256, kernel_size=(1, 1), stride=(1, 1))
              (4): Sigmoid()
            )
            (sSE): Sequential(
              (0): Conv2d(256, 1, kernel_size=(1, 1), stride=(1, 1))
              (1): Sigmoid()
            )
          )
        )
      )
      (1): DecoderBlock2d(
        (upsample): UpSample(
          (deconv): ConvTranspose2d(256, 256, kernel_size=(2, 2), stride=(2, 2))
        )
        (attention1): Attention2d(
          (attention): SCSEModule2d(
            (cSE): Sequential(
              (0): AdaptiveAvgPool2d(output_size=1)
              (1): Conv2d(640, 40, kernel_size=(1, 1), stride=(1, 1))
              (2): GELU(approximate='none')
              (3): Conv2d(40, 640, kernel_size=(1, 1), stride=(1, 1))
              (4): Sigmoid()
            )
            (sSE): Sequential(
              (0): Conv2d(640, 1, kernel_size=(1, 1), stride=(1, 1))
              (1): Sigmoid()
            )
          )
        )
        (conv1): ConvBnAct2d(
          (conv): Conv2d(640, 128, kernel_size=(3, 3), stride=(1, 1), padding=(1, 1), bias=False)
          (norm): InstanceNorm2d(128, eps=1e-05, momentum=0.1, affine=False, track_running_stats=False)
          (act): GELU(approximate='none')
        )
        (conv2): ConvBnAct2d(
          (conv): Conv2d(128, 128, kernel_size=(3, 3), stride=(1, 1), padding=(1, 1), bias=False)
          (norm): InstanceNorm2d(128, eps=1e-05, momentum=0.1, affine=False, track_running_stats=False)
          (act): GELU(approximate='none')
        )
        (attention2): Attention2d(
          (attention): SCSEModule2d(
            (cSE): Sequential(
              (0): AdaptiveAvgPool2d(output_size=1)
              (1): Conv2d(128, 8, kernel_size=(1, 1), stride=(1, 1))
              (2): GELU(approximate='none')
              (3): Conv2d(8, 128, kernel_size=(1, 1), stride=(1, 1))
              (4): Sigmoid()
            )
            (sSE): Sequential(
              (0): Conv2d(128, 1, kernel_size=(1, 1), stride=(1, 1))
              (1): Sigmoid()
            )
          )
        )
      )
      (2): DecoderBlock2d(
        (upsample): UpSample(
          (deconv): ConvTranspose2d(128, 128, kernel_size=(2, 2), stride=(2, 2))
        )
        (attention1): Attention2d(
          (attention): SCSEModule2d(
            (cSE): Sequential(
              (0): AdaptiveAvgPool2d(output_size=1)
              (1): Conv2d(896, 56, kernel_size=(1, 1), stride=(1, 1))
              (2): GELU(approximate='none')
              (3): Conv2d(56, 896, kernel_size=(1, 1), stride=(1, 1))
              (4): Sigmoid()
            )
            (sSE): Sequential(
              (0): Conv2d(896, 1, kernel_size=(1, 1), stride=(1, 1))
              (1): Sigmoid()
            )
          )
        )
        (conv1): ConvBnAct2d(
          (conv): Conv2d(896, 64, kernel_size=(3, 3), stride=(1, 1), padding=(1, 1), bias=False)
          (norm): InstanceNorm2d(64, eps=1e-05, momentum=0.1, affine=False, track_running_stats=False)
          (act): GELU(approximate='none')
        )
        (conv2): ConvBnAct2d(
          (conv): Conv2d(64, 64, kernel_size=(3, 3), stride=(1, 1), padding=(1, 1), bias=False)
          (norm): InstanceNorm2d(64, eps=1e-05, momentum=0.1, affine=False, track_running_stats=False)
          (act): GELU(approximate='none')
        )
        (attention2): Attention2d(
          (attention): SCSEModule2d(
            (cSE): Sequential(
              (0): AdaptiveAvgPool2d(output_size=1)
              (1): Conv2d(64, 4, kernel_size=(1, 1), stride=(1, 1))
              (2): GELU(approximate='none')
              (3): Conv2d(4, 64, kernel_size=(1, 1), stride=(1, 1))
              (4): Sigmoid()
            )
            (sSE): Sequential(
              (0): Conv2d(64, 1, kernel_size=(1, 1), stride=(1, 1))
              (1): Sigmoid()
            )
          )
        )
      )
      (3): DecoderBlock2d(
        (upsample): UpSample(
          (deconv): ConvTranspose2d(64, 64, kernel_size=(2, 2), stride=(2, 2))
        )
        (attention1): Attention2d(
          (attention): SCSEModule2d(
            (cSE): Sequential(
              (0): AdaptiveAvgPool2d(output_size=1)
              (1): Conv2d(64, 4, kernel_size=(1, 1), stride=(1, 1))
              (2): GELU(approximate='none')
              (3): Conv2d(4, 64, kernel_size=(1, 1), stride=(1, 1))
              (4): Sigmoid()
            )
            (sSE): Sequential(
              (0): Conv2d(64, 1, kernel_size=(1, 1), stride=(1, 1))
              (1): Sigmoid()
            )
          )
        )
        (conv1): ConvBnAct2d(
          (conv): Conv2d(64, 32, kernel_size=(3, 3), stride=(1, 1), padding=(1, 1), bias=False)
          (norm): InstanceNorm2d(32, eps=1e-05, momentum=0.1, affine=False, track_running_stats=False)
          (act): GELU(approximate='none')
        )
        (conv2): ConvBnAct2d(
          (conv): Conv2d(32, 32, kernel_size=(3, 3), stride=(1, 1), padding=(1, 1), bias=False)
          (norm): InstanceNorm2d(32, eps=1e-05, momentum=0.1, affine=False, track_running_stats=False)
          (act): GELU(approximate='none')
        )
        (attention2): Attention2d(
          (attention): SCSEModule2d(
            (cSE): Sequential(
              (0): AdaptiveAvgPool2d(output_size=1)
              (1): Conv2d(32, 2, kernel_size=(1, 1), stride=(1, 1))
              (2): GELU(approximate='none')
              (3): Conv2d(2, 32, kernel_size=(1, 1), stride=(1, 1))
              (4): Sigmoid()
            )
            (sSE): Sequential(
              (0): Conv2d(32, 1, kernel_size=(1, 1), stride=(1, 1))
              (1): Sigmoid()
            )
          )
        )
      )
    )
  )
  (seg_head): SegmentationHead2d(
    (conv): ConvBnAct2d(
      (conv): Conv2d(32, 1, kernel_size=(3, 3), stride=(1, 1), padding=(1, 1), bias=False)
      (norm): Identity()
      (act): Identity()
    )
    (upsample): Identity()
  )
)


 Matching Decoder Blocks with Encoder Outputs
Decoder Block Index	Skip Channels	Match Encoder Stage	Encoder Output Channels
0	192	stages_1	192
1	384	stages_2	384
2	768	stages_3	768
3	64	Custom (likely input stem)	64? (possibly downsampled early feature map)
…
