…
    はい、これらのレイヤーの順番は**非常に重要**です。ニューラルネットワークは、これらの層が一連の連続した変換処理として機能することで特徴を
    抽出・変換します。各層の出力が次の層の入力となるため、処理の順序が変わると、入力データが変換される方法が根本的に変わってしまいます。

    例えば、「全結合層 -> 活性化関数 -> 正規化層」と「正規化層 -> 全結合層 -> 活性化関数」では、計算される値の範囲や分布が大きく異なり、
    ネットワークの学習のしやすさ、安定性、そして最終的な性能に直接的な影響を与えます。

    リストされている `fc1` -> `act` -> `drop1` -> `norm` -> `fc2` -> `drop2` という順番は、特定のアーキテクチャ
    （例: ConvNeXtのModified MLP Blockの一部）に基づいて設計されたものです。この順序は、先行研究や実験によって最適な性能が得られると
    判断された構成であり、モデルの機能を実現するために不可欠な要素です。したがって、これらのレイヤーのそれぞれの役割と、
    それらが配置されている順番は、モデルの正確な動作と性能にとって極めて重要です。



    Net(
  (backbone): FeatureListNet(
    (stem_0): Sequential(
      (0): ReflectionPad2d((1, 1, 80, 80))
      (1): Conv2d(5, 96, kernel_size=(4, 4), stride=(4, 1), padding=(0, 2))
      (2): Conv2d(96, 96, kernel_size=(4, 4), stride=(4, 1), padding=(0, 1))
    )
    (stem_1): InstanceNorm2d(96, eps=1e-05, momentum=0.1, affine=True, track_running_stats=False)
    (stages_0): ConvNeXtStage(
      (downsample): Identity()
      (blocks): Sequential(
        (0): ConvNeXtBlock(
          (conv_dw): Conv2d(96, 96, kernel_size=(7, 7), stride=(1, 1), padding=(3, 3), groups=96)
          (norm): InstanceNorm2d(96, eps=1e-05, momentum=0.1, affine=True, track_running_stats=False)
          (mlp): Mlp(
            (fc1): Linear(in_features=96, out_features=384, bias=True)
            (act): GELU()
            (drop1): Dropout(p=0.0, inplace=False)
            (norm): Identity()
            (fc2): Linear(in_features=384, out_features=96, bias=True)
            (drop2): Dropout(p=0.0, inplace=False)
          )
          (shortcut): Identity()
          (drop_path): Identity()
        )
        (1): ConvNeXtBlock(
          (conv_dw): Conv2d(96, 96, kernel_size=(7, 7), stride=(1, 1), padding=(3, 3), groups=96)
          (norm): InstanceNorm2d(96, eps=1e-05, momentum=0.1, affine=True, track_running_stats=False)
          (mlp): Mlp(
            (fc1): Linear(in_features=96, out_features=384, bias=True)
            (act): GELU()
            (drop1): Dropout(p=0.0, inplace=False)
            (norm): Identity()
            (fc2): Linear(in_features=384, out_features=96, bias=True)
            (drop2): Dropout(p=0.0, inplace=False)
          )
          (shortcut): Identity()
          (drop_path): Identity()
        )
        (2): ConvNeXtBlock(
          (conv_dw): Conv2d(96, 96, kernel_size=(7, 7), stride=(1, 1), padding=(3, 3), groups=96)
          (norm): InstanceNorm2d(96, eps=1e-05, momentum=0.1, affine=True, track_running_stats=False)
          (mlp): Mlp(
            (fc1): Linear(in_features=96, out_features=384, bias=True)
            (act): GELU()
            (drop1): Dropout(p=0.0, inplace=False)
            (norm): Identity()
            (fc2): Linear(in_features=384, out_features=96, bias=True)
            (drop2): Dropout(p=0.0, inplace=False)
          )
          (shortcut): Identity()
          (drop_path): Identity()
        )
      )
    )
    (stages_1): ConvNeXtStage(
      (downsample): Sequential(
        (0): InstanceNorm2d(96, eps=1e-05, momentum=0.1, affine=True, track_running_stats=False)
        (1): Conv2d(96, 192, kernel_size=(2, 2), stride=(2, 2))
      )
      (blocks): Sequential(
        (0): ConvNeXtBlock(
          (conv_dw): Conv2d(192, 192, kernel_size=(7, 7), stride=(1, 1), padding=(3, 3), groups=192)
          (norm): InstanceNorm2d(192, eps=1e-05, momentum=0.1, affine=True, track_running_stats=False)
          (mlp): Mlp(
            (fc1): Linear(in_features=192, out_features=768, bias=True)
            (act): GELU()
            (drop1): Dropout(p=0.0, inplace=False)
            (norm): Identity()
            (fc2): Linear(in_features=768, out_features=192, bias=True)
            (drop2): Dropout(p=0.0, inplace=False)
          )
          (shortcut): Identity()
          (drop_path): Identity()
        )
        (1): ConvNeXtBlock(
          (conv_dw): Conv2d(192, 192, kernel_size=(7, 7), stride=(1, 1), padding=(3, 3), groups=192)
          (norm): InstanceNorm2d(192, eps=1e-05, momentum=0.1, affine=True, track_running_stats=False)
          (mlp): Mlp(
            (fc1): Linear(in_features=192, out_features=768, bias=True)
            (act): GELU()
            (drop1): Dropout(p=0.0, inplace=False)
            (norm): Identity()
            (fc2): Linear(in_features=768, out_features=192, bias=True)
            (drop2): Dropout(p=0.0, inplace=False)
          )
          (shortcut): Identity()
          (drop_path): Identity()
        )
        (2): ConvNeXtBlock(
          (conv_dw): Conv2d(192, 192, kernel_size=(7, 7), stride=(1, 1), padding=(3, 3), groups=192)
          (norm): InstanceNorm2d(192, eps=1e-05, momentum=0.1, affine=True, track_running_stats=False)
          (mlp): Mlp(
            (fc1): Linear(in_features=192, out_features=768, bias=True)
            (act): GELU()
            (drop1): Dropout(p=0.0, inplace=False)
            (norm): Identity()
            (fc2): Linear(in_features=768, out_features=192, bias=True)
            (drop2): Dropout(p=0.0, inplace=False)
          )
          (shortcut): Identity()
          (drop_path): Identity()
        )
      )
    )
    (stages_2): ConvNeXtStage(
      (downsample): Sequential(
        (0): InstanceNorm2d(192, eps=1e-05, momentum=0.1, affine=True, track_running_stats=False)
        (1): Conv2d(192, 384, kernel_size=(2, 2), stride=(2, 2))
      )
      (blocks): Sequential(
        (0): ConvNeXtBlock(
          (conv_dw): Conv2d(384, 384, kernel_size=(7, 7), stride=(1, 1), padding=(3, 3), groups=384)
          (norm): InstanceNorm2d(384, eps=1e-05, momentum=0.1, affine=True, track_running_stats=False)
          (mlp): Mlp(
            (fc1): Linear(in_features=384, out_features=1536, bias=True)
            (act): GELU()
            (drop1): Dropout(p=0.0, inplace=False)
            (norm): Identity()
            (fc2): Linear(in_features=1536, out_features=384, bias=True)
            (drop2): Dropout(p=0.0, inplace=False)
          )
          (shortcut): Identity()
          (drop_path): Identity()
        )
        (1): ConvNeXtBlock(
          (conv_dw): Conv2d(384, 384, kernel_size=(7, 7), stride=(1, 1), padding=(3, 3), groups=384)
          (norm): InstanceNorm2d(384, eps=1e-05, momentum=0.1, affine=True, track_running_stats=False)
          (mlp): Mlp(
            (fc1): Linear(in_features=384, out_features=1536, bias=True)
            (act): GELU()
            (drop1): Dropout(p=0.0, inplace=False)
            (norm): Identity()
            (fc2): Linear(in_features=1536, out_features=384, bias=True)
            (drop2): Dropout(p=0.0, inplace=False)
          )
          (shortcut): Identity()
          (drop_path): Identity()
        )
        (2): ConvNeXtBlock(
          (conv_dw): Conv2d(384, 384, kernel_size=(7, 7), stride=(1, 1), padding=(3, 3), groups=384)
          (norm): InstanceNorm2d(384, eps=1e-05, momentum=0.1, affine=True, track_running_stats=False)
          (mlp): Mlp(
            (fc1): Linear(in_features=384, out_features=1536, bias=True)
            (act): GELU()
            (drop1): Dropout(p=0.0, inplace=False)
            (norm): Identity()
            (fc2): Linear(in_features=1536, out_features=384, bias=True)
            (drop2): Dropout(p=0.0, inplace=False)
          )
          (shortcut): Identity()
          (drop_path): Identity()
        )
        (3): ConvNeXtBlock(
          (conv_dw): Conv2d(384, 384, kernel_size=(7, 7), stride=(1, 1), padding=(3, 3), groups=384)
          (norm): InstanceNorm2d(384, eps=1e-05, momentum=0.1, affine=True, track_running_stats=False)
          (mlp): Mlp(
            (fc1): Linear(in_features=384, out_features=1536, bias=True)
            (act): GELU()
            (drop1): Dropout(p=0.0, inplace=False)
            (norm): Identity()
            (fc2): Linear(in_features=1536, out_features=384, bias=True)
            (drop2): Dropout(p=0.0, inplace=False)
          )
          (shortcut): Identity()
          (drop_path): Identity()
        )
        (4): ConvNeXtBlock(
          (conv_dw): Conv2d(384, 384, kernel_size=(7, 7), stride=(1, 1), padding=(3, 3), groups=384)
          (norm): InstanceNorm2d(384, eps=1e-05, momentum=0.1, affine=True, track_running_stats=False)
          (mlp): Mlp(
            (fc1): Linear(in_features=384, out_features=1536, bias=True)
            (act): GELU()
            (drop1): Dropout(p=0.0, inplace=False)
            (norm): Identity()
            (fc2): Linear(in_features=1536, out_features=384, bias=True)
            (drop2): Dropout(p=0.0, inplace=False)
          )
          (shortcut): Identity()
          (drop_path): Identity()
        )
        (5): ConvNeXtBlock(
          (conv_dw): Conv2d(384, 384, kernel_size=(7, 7), stride=(1, 1), padding=(3, 3), groups=384)
          (norm): InstanceNorm2d(384, eps=1e-05, momentum=0.1, affine=True, track_running_stats=False)
          (mlp): Mlp(
            (fc1): Linear(in_features=384, out_features=1536, bias=True)
            (act): GELU()
            (drop1): Dropout(p=0.0, inplace=False)
            (norm): Identity()
            (fc2): Linear(in_features=1536, out_features=384, bias=True)
            (drop2): Dropout(p=0.0, inplace=False)
          )
          (shortcut): Identity()
          (drop_path): Identity()
        )
        (6): ConvNeXtBlock(
          (conv_dw): Conv2d(384, 384, kernel_size=(7, 7), stride=(1, 1), padding=(3, 3), groups=384)
          (norm): InstanceNorm2d(384, eps=1e-05, momentum=0.1, affine=True, track_running_stats=False)
          (mlp): Mlp(
            (fc1): Linear(in_features=384, out_features=1536, bias=True)
            (act): GELU()
            (drop1): Dropout(p=0.0, inplace=False)
            (norm): Identity()
            (fc2): Linear(in_features=1536, out_features=384, bias=True)
            (drop2): Dropout(p=0.0, inplace=False)
          )
          (shortcut): Identity()
          (drop_path): Identity()
        )
        (7): ConvNeXtBlock(
          (conv_dw): Conv2d(384, 384, kernel_size=(7, 7), stride=(1, 1), padding=(3, 3), groups=384)
          (norm): InstanceNorm2d(384, eps=1e-05, momentum=0.1, affine=True, track_running_stats=False)
          (mlp): Mlp(
            (fc1): Linear(in_features=384, out_features=1536, bias=True)
            (act): GELU()
            (drop1): Dropout(p=0.0, inplace=False)
            (norm): Identity()
            (fc2): Linear(in_features=1536, out_features=384, bias=True)
            (drop2): Dropout(p=0.0, inplace=False)
          )
          (shortcut): Identity()
          (drop_path): Identity()
        )
        (8): ConvNeXtBlock(
          (conv_dw): Conv2d(384, 384, kernel_size=(7, 7), stride=(1, 1), padding=(3, 3), groups=384)
          (norm): InstanceNorm2d(384, eps=1e-05, momentum=0.1, affine=True, track_running_stats=False)
          (mlp): Mlp(
            (fc1): Linear(in_features=384, out_features=1536, bias=True)
            (act): GELU()
            (drop1): Dropout(p=0.0, inplace=False)
            (norm): Identity()
            (fc2): Linear(in_features=1536, out_features=384, bias=True)
            (drop2): Dropout(p=0.0, inplace=False)
          )
          (shortcut): Identity()
          (drop_path): Identity()
        )
        (9): ConvNeXtBlock(
          (conv_dw): Conv2d(384, 384, kernel_size=(7, 7), stride=(1, 1), padding=(3, 3), groups=384)
          (norm): InstanceNorm2d(384, eps=1e-05, momentum=0.1, affine=True, track_running_stats=False)
          (mlp): Mlp(
            (fc1): Linear(in_features=384, out_features=1536, bias=True)
            (act): GELU()
            (drop1): Dropout(p=0.0, inplace=False)
            (norm): Identity()
            (fc2): Linear(in_features=1536, out_features=384, bias=True)
            (drop2): Dropout(p=0.0, inplace=False)
          )
          (shortcut): Identity()
          (drop_path): Identity()
        )
        (10): ConvNeXtBlock(
          (conv_dw): Conv2d(384, 384, kernel_size=(7, 7), stride=(1, 1), padding=(3, 3), groups=384)
          (norm): InstanceNorm2d(384, eps=1e-05, momentum=0.1, affine=True, track_running_stats=False)
          (mlp): Mlp(
            (fc1): Linear(in_features=384, out_features=1536, bias=True)
            (act): GELU()
            (drop1): Dropout(p=0.0, inplace=False)
            (norm): Identity()
            (fc2): Linear(in_features=1536, out_features=384, bias=True)
            (drop2): Dropout(p=0.0, inplace=False)
          )
          (shortcut): Identity()
          (drop_path): Identity()
        )
        (11): ConvNeXtBlock(
          (conv_dw): Conv2d(384, 384, kernel_size=(7, 7), stride=(1, 1), padding=(3, 3), groups=384)
          (norm): InstanceNorm2d(384, eps=1e-05, momentum=0.1, affine=True, track_running_stats=False)
          (mlp): Mlp(
            (fc1): Linear(in_features=384, out_features=1536, bias=True)
            (act): GELU()
            (drop1): Dropout(p=0.0, inplace=False)
            (norm): Identity()
            (fc2): Linear(in_features=1536, out_features=384, bias=True)
            (drop2): Dropout(p=0.0, inplace=False)
          )
          (shortcut): Identity()
          (drop_path): Identity()
        )
        (12): ConvNeXtBlock(
          (conv_dw): Conv2d(384, 384, kernel_size=(7, 7), stride=(1, 1), padding=(3, 3), groups=384)
          (norm): InstanceNorm2d(384, eps=1e-05, momentum=0.1, affine=True, track_running_stats=False)
          (mlp): Mlp(
            (fc1): Linear(in_features=384, out_features=1536, bias=True)
            (act): GELU()
            (drop1): Dropout(p=0.0, inplace=False)
            (norm): Identity()
            (fc2): Linear(in_features=1536, out_features=384, bias=True)
            (drop2): Dropout(p=0.0, inplace=False)
          )
          (shortcut): Identity()
          (drop_path): Identity()
        )
        (13): ConvNeXtBlock(
          (conv_dw): Conv2d(384, 384, kernel_size=(7, 7), stride=(1, 1), padding=(3, 3), groups=384)
          (norm): InstanceNorm2d(384, eps=1e-05, momentum=0.1, affine=True, track_running_stats=False)
          (mlp): Mlp(
            (fc1): Linear(in_features=384, out_features=1536, bias=True)
            (act): GELU()
            (drop1): Dropout(p=0.0, inplace=False)
            (norm): Identity()
            (fc2): Linear(in_features=1536, out_features=384, bias=True)
            (drop2): Dropout(p=0.0, inplace=False)
          )
          (shortcut): Identity()
          (drop_path): Identity()
        )
        (14): ConvNeXtBlock(
          (conv_dw): Conv2d(384, 384, kernel_size=(7, 7), stride=(1, 1), padding=(3, 3), groups=384)
          (norm): InstanceNorm2d(384, eps=1e-05, momentum=0.1, affine=True, track_running_stats=False)
          (mlp): Mlp(
            (fc1): Linear(in_features=384, out_features=1536, bias=True)
            (act): GELU()
            (drop1): Dropout(p=0.0, inplace=False)
            (norm): Identity()
            (fc2): Linear(in_features=1536, out_features=384, bias=True)
            (drop2): Dropout(p=0.0, inplace=False)
          )
          (shortcut): Identity()
          (drop_path): Identity()
        )
        (15): ConvNeXtBlock(
          (conv_dw): Conv2d(384, 384, kernel_size=(7, 7), stride=(1, 1), padding=(3, 3), groups=384)
          (norm): InstanceNorm2d(384, eps=1e-05, momentum=0.1, affine=True, track_running_stats=False)
          (mlp): Mlp(
            (fc1): Linear(in_features=384, out_features=1536, bias=True)
            (act): GELU()
            (drop1): Dropout(p=0.0, inplace=False)
            (norm): Identity()
            (fc2): Linear(in_features=1536, out_features=384, bias=True)
            (drop2): Dropout(p=0.0, inplace=False)
          )
          (shortcut): Identity()
          (drop_path): Identity()
        )
        (16): ConvNeXtBlock(
          (conv_dw): Conv2d(384, 384, kernel_size=(7, 7), stride=(1, 1), padding=(3, 3), groups=384)
          (norm): InstanceNorm2d(384, eps=1e-05, momentum=0.1, affine=True, track_running_stats=False)
          (mlp): Mlp(
            (fc1): Linear(in_features=384, out_features=1536, bias=True)
            (act): GELU()
            (drop1): Dropout(p=0.0, inplace=False)
            (norm): Identity()
            (fc2): Linear(in_features=1536, out_features=384, bias=True)
            (drop2): Dropout(p=0.0, inplace=False)
          )
          (shortcut): Identity()
          (drop_path): Identity()
        )
        (17): ConvNeXtBlock(
          (conv_dw): Conv2d(384, 384, kernel_size=(7, 7), stride=(1, 1), padding=(3, 3), groups=384)
          (norm): InstanceNorm2d(384, eps=1e-05, momentum=0.1, affine=True, track_running_stats=False)
          (mlp): Mlp(
            (fc1): Linear(in_features=384, out_features=1536, bias=True)
            (act): GELU()
            (drop1): Dropout(p=0.0, inplace=False)
            (norm): Identity()
            (fc2): Linear(in_features=1536, out_features=384, bias=True)
            (drop2): Dropout(p=0.0, inplace=False)
          )
          (shortcut): Identity()
          (drop_path): Identity()
        )
        (18): ConvNeXtBlock(
          (conv_dw): Conv2d(384, 384, kernel_size=(7, 7), stride=(1, 1), padding=(3, 3), groups=384)
          (norm): InstanceNorm2d(384, eps=1e-05, momentum=0.1, affine=True, track_running_stats=False)
          (mlp): Mlp(
            (fc1): Linear(in_features=384, out_features=1536, bias=True)
            (act): GELU()
            (drop1): Dropout(p=0.0, inplace=False)
            (norm): Identity()
            (fc2): Linear(in_features=1536, out_features=384, bias=True)
            (drop2): Dropout(p=0.0, inplace=False)
          )
          (shortcut): Identity()
          (drop_path): Identity()
        )
        (19): ConvNeXtBlock(
          (conv_dw): Conv2d(384, 384, kernel_size=(7, 7), stride=(1, 1), padding=(3, 3), groups=384)
          (norm): InstanceNorm2d(384, eps=1e-05, momentum=0.1, affine=True, track_running_stats=False)
          (mlp): Mlp(
            (fc1): Linear(in_features=384, out_features=1536, bias=True)
            (act): GELU()
            (drop1): Dropout(p=0.0, inplace=False)
            (norm): Identity()
            (fc2): Linear(in_features=1536, out_features=384, bias=True)
            (drop2): Dropout(p=0.0, inplace=False)
          )
          (shortcut): Identity()
          (drop_path): Identity()
        )
        (20): ConvNeXtBlock(
          (conv_dw): Conv2d(384, 384, kernel_size=(7, 7), stride=(1, 1), padding=(3, 3), groups=384)
          (norm): InstanceNorm2d(384, eps=1e-05, momentum=0.1, affine=True, track_running_stats=False)
          (mlp): Mlp(
            (fc1): Linear(in_features=384, out_features=1536, bias=True)
            (act): GELU()
            (drop1): Dropout(p=0.0, inplace=False)
            (norm): Identity()
            (fc2): Linear(in_features=1536, out_features=384, bias=True)
            (drop2): Dropout(p=0.0, inplace=False)
          )
          (shortcut): Identity()
          (drop_path): Identity()
        )
        (21): ConvNeXtBlock(
          (conv_dw): Conv2d(384, 384, kernel_size=(7, 7), stride=(1, 1), padding=(3, 3), groups=384)
          (norm): InstanceNorm2d(384, eps=1e-05, momentum=0.1, affine=True, track_running_stats=False)
          (mlp): Mlp(
            (fc1): Linear(in_features=384, out_features=1536, bias=True)
            (act): GELU()
            (drop1): Dropout(p=0.0, inplace=False)
            (norm): Identity()
            (fc2): Linear(in_features=1536, out_features=384, bias=True)
            (drop2): Dropout(p=0.0, inplace=False)
          )
          (shortcut): Identity()
          (drop_path): Identity()
        )
        (22): ConvNeXtBlock(
          (conv_dw): Conv2d(384, 384, kernel_size=(7, 7), stride=(1, 1), padding=(3, 3), groups=384)
          (norm): InstanceNorm2d(384, eps=1e-05, momentum=0.1, affine=True, track_running_stats=False)
          (mlp): Mlp(
            (fc1): Linear(in_features=384, out_features=1536, bias=True)
            (act): GELU()
            (drop1): Dropout(p=0.0, inplace=False)
            (norm): Identity()
            (fc2): Linear(in_features=1536, out_features=384, bias=True)
            (drop2): Dropout(p=0.0, inplace=False)
          )
          (shortcut): Identity()
          (drop_path): Identity()
        )
        (23): ConvNeXtBlock(
          (conv_dw): Conv2d(384, 384, kernel_size=(7, 7), stride=(1, 1), padding=(3, 3), groups=384)
          (norm): InstanceNorm2d(384, eps=1e-05, momentum=0.1, affine=True, track_running_stats=False)
          (mlp): Mlp(
            (fc1): Linear(in_features=384, out_features=1536, bias=True)
            (act): GELU()
            (drop1): Dropout(p=0.0, inplace=False)
            (norm): Identity()
            (fc2): Linear(in_features=1536, out_features=384, bias=True)
            (drop2): Dropout(p=0.0, inplace=False)
          )
          (shortcut): Identity()
          (drop_path): Identity()
        )
        (24): ConvNeXtBlock(
          (conv_dw): Conv2d(384, 384, kernel_size=(7, 7), stride=(1, 1), padding=(3, 3), groups=384)
          (norm): InstanceNorm2d(384, eps=1e-05, momentum=0.1, affine=True, track_running_stats=False)
          (mlp): Mlp(
            (fc1): Linear(in_features=384, out_features=1536, bias=True)
            (act): GELU()
            (drop1): Dropout(p=0.0, inplace=False)
            (norm): Identity()
            (fc2): Linear(in_features=1536, out_features=384, bias=True)
            (drop2): Dropout(p=0.0, inplace=False)
          )
          (shortcut): Identity()
          (drop_path): Identity()
        )
        (25): ConvNeXtBlock(
          (conv_dw): Conv2d(384, 384, kernel_size=(7, 7), stride=(1, 1), padding=(3, 3), groups=384)
          (norm): InstanceNorm2d(384, eps=1e-05, momentum=0.1, affine=True, track_running_stats=False)
          (mlp): Mlp(
            (fc1): Linear(in_features=384, out_features=1536, bias=True)
            (act): GELU()
            (drop1): Dropout(p=0.0, inplace=False)
            (norm): Identity()
            (fc2): Linear(in_features=1536, out_features=384, bias=True)
            (drop2): Dropout(p=0.0, inplace=False)
          )
          (shortcut): Identity()
          (drop_path): Identity()
        )
        (26): ConvNeXtBlock(
          (conv_dw): Conv2d(384, 384, kernel_size=(7, 7), stride=(1, 1), padding=(3, 3), groups=384)
          (norm): InstanceNorm2d(384, eps=1e-05, momentum=0.1, affine=True, track_running_stats=False)
          (mlp): Mlp(
            (fc1): Linear(in_features=384, out_features=1536, bias=True)
            (act): GELU()
            (drop1): Dropout(p=0.0, inplace=False)
            (norm): Identity()
            (fc2): Linear(in_features=1536, out_features=384, bias=True)
            (drop2): Dropout(p=0.0, inplace=False)
          )
          (shortcut): Identity()
          (drop_path): Identity()
        )
      )
    )
    (stages_3): ConvNeXtStage(
      (downsample): Sequential(
        (0): InstanceNorm2d(384, eps=1e-05, momentum=0.1, affine=True, track_running_stats=False)
        (1): Conv2d(384, 768, kernel_size=(2, 2), stride=(2, 2))
      )
      (blocks): Sequential(
        (0): ConvNeXtBlock(
          (conv_dw): Conv2d(768, 768, kernel_size=(7, 7), stride=(1, 1), padding=(3, 3), groups=768)
          (norm): InstanceNorm2d(768, eps=1e-05, momentum=0.1, affine=True, track_running_stats=False)
          (mlp): Mlp(
            (fc1): Linear(in_features=768, out_features=3072, bias=True)
            (act): GELU()
            (drop1): Dropout(p=0.0, inplace=False)
            (norm): Identity()
            (fc2): Linear(in_features=3072, out_features=768, bias=True)
            (drop2): Dropout(p=0.0, inplace=False)
          )
          (shortcut): Identity()
          (drop_path): Identity()
        )
        (1): ConvNeXtBlock(
          (conv_dw): Conv2d(768, 768, kernel_size=(7, 7), stride=(1, 1), padding=(3, 3), groups=768)
          (norm): InstanceNorm2d(768, eps=1e-05, momentum=0.1, affine=True, track_running_stats=False)
          (mlp): Mlp(
            (fc1): Linear(in_features=768, out_features=3072, bias=True)
            (act): GELU()
            (drop1): Dropout(p=0.0, inplace=False)
            (norm): Identity()
            (fc2): Linear(in_features=3072, out_features=768, bias=True)
            (drop2): Dropout(p=0.0, inplace=False)
          )
          (shortcut): Identity()
          (drop_path): Identity()
        )
        (2): ConvNeXtBlock(
          (conv_dw): Conv2d(768, 768, kernel_size=(7, 7), stride=(1, 1), padding=(3, 3), groups=768)
          (norm): InstanceNorm2d(768, eps=1e-05, momentum=0.1, affine=True, track_running_stats=False)
          (mlp): Mlp(
            (fc1): Linear(in_features=768, out_features=3072, bias=True)
            (act): GELU()
            (drop1): Dropout(p=0.0, inplace=False)
            (norm): Identity()
            (fc2): Linear(in_features=3072, out_features=768, bias=True)
            (drop2): Dropout(p=0.0, inplace=False)
          )
          (shortcut): Identity()
          (drop_path): Identity()
        )
      )
    )
  )
  (decoder): UnetDecoder2d(
    (blocks): ModuleList(
      (0): DecoderBlock2d(
        (upsample): UpSample(
          (deconv): ConvTranspose2d(768, 768, kernel_size=(2, 2), stride=(2, 2))
        )
        (attention1): Attention2d(
          (attention): Identity()
        )
        (conv1): ConvBnAct2d(
          (conv): Conv2d(1152, 128, kernel_size=(3, 3), stride=(1, 1), padding=(1, 1), bias=False)
          (norm): Identity()
          (act): ReLU(inplace=True)
        )
        (conv2): ConvBnAct2d(
          (conv): Conv2d(128, 128, kernel_size=(3, 3), stride=(1, 1), padding=(1, 1), bias=False)
          (norm): Identity()
          (act): ReLU(inplace=True)
        )
        (attention2): Attention2d(
          (attention): Identity()
        )
      )
      (1): DecoderBlock2d(
        (upsample): UpSample(
          (deconv): ConvTranspose2d(128, 128, kernel_size=(2, 2), stride=(2, 2))
        )
        (attention1): Attention2d(
          (attention): Identity()
        )
        (conv1): ConvBnAct2d(
          (conv): Conv2d(320, 64, kernel_size=(3, 3), stride=(1, 1), padding=(1, 1), bias=False)
          (norm): Identity()
          (act): ReLU(inplace=True)
        )
        (conv2): ConvBnAct2d(
          (conv): Conv2d(64, 64, kernel_size=(3, 3), stride=(1, 1), padding=(1, 1), bias=False)
          (norm): Identity()
          (act): ReLU(inplace=True)
        )
        (attention2): Attention2d(
          (attention): Identity()
        )
      )
      (2): DecoderBlock2d(
        (upsample): UpSample(
          (deconv): ConvTranspose2d(64, 64, kernel_size=(2, 2), stride=(2, 2))
        )
        (attention1): Attention2d(
          (attention): Identity()
        )
        (conv1): ConvBnAct2d(
          (conv): Conv2d(160, 32, kernel_size=(3, 3), stride=(1, 1), padding=(1, 1), bias=False)
          (norm): Identity()
          (act): ReLU(inplace=True)
        )
        (conv2): ConvBnAct2d(
          (conv): Conv2d(32, 32, kernel_size=(3, 3), stride=(1, 1), padding=(1, 1), bias=False)
          (norm): Identity()
          (act): ReLU(inplace=True)
        )
        (attention2): Attention2d(
          (attention): Identity()
        )
      )
    )
  )
  (seg_head): SegmentationHead2d(
    (conv): Conv2d(32, 1, kernel_size=(3, 3), stride=(1, 1), padding=(1, 1))
    (upsample): UpSample(
      (upsample_non_trainable): Upsample(scale_factor=(1.0, 1.0), mode='bilinear')
    )
  )
)